mnist_net.pth (torch, 961065 bytes, 8 tensors)

conv1.weight f4 [32, 1, 3, 3]
0	0xbdc314a6	-0.09525423
1	0xbe89631a	-0.2683342
2	0x3ec08065	0.37597957
3	0xbed34279	-0.41261652
4	0x3d5b424f	0.053530034
5	0x3e59cb02	0.21268848
6	0xbe7e5fe4	-0.24841267
7	0x3ed6a05e	0.41919225
8	0x3ee35b5c	0.4440564
9	0xbdf64de9	-0.12026579
10	0xbefab498	-0.48965907
11	0xbf063f8a	-0.524407
12	0x3e37cb17	0.17948566
13	0x3eb43d0a	0.3520282
14	0xbcc404d0	-0.023928076
15	0x3de6ab2f	0.112631194
16	0x3ea241fa	0.3169096
17	0x3e85eeae	0.2615866
18	0x3e2b7db0	0.16747165
19	0xbe9a0672	-0.30083042
20	0xbe1078fd	-0.14108653
21	0x3d9c218d	0.07623587
22	0xbeed69cd	-0.46369782
23	0x3ebc2201	0.36744693
24	0x3a8ae872	0.0010597839
25	0xbea57d32	-0.3232208
26	0x3ee73c9e	0.45163435
27	0x3d5b0195	0.053468306
28	0x3e9e9f1e	0.30980772
29	0xbd309d58	-0.043118805
30	0xbe822f42	-0.2542668
31	0x3e03d873	0.12875538
32	0x3ef35753	0.4752756
33	0x3dfeee8a	0.124478415
34	0xbecef21d	-0.40419093
35	0xbec8fc8a	-0.39255172
36	0x3d2c9e4b	0.042143147
37	0xbe5d4daa	-0.21611658
38	0x3e8a284f	0.26983878
39	0xbe4ce89d	-0.2001061
40	0x3e520cfb	0.20512764
41	0xbe8bbc78	-0.27292228
42	0xbe0dc5b0	-0.13844943
43	0x3e5f1bc5	0.21787937
44	0x3e8e5d5f	0.27805611
45	0xbdca7cb9	-0.0988707
46	0x3ebec9e2	0.372634
47	0x3d12a7b9	0.035804484
48	0x3ec412ee	0.38295692
49	0x3bb19441	0.0054192846
50	0xbedba863	-0.42901906
51	0x3ec4b9cd	0.38423005
52	0x3e700ac3	0.23441605
53	0xbeeec385	-0.46633545
54	0x3bc03cb5	0.005866612
55	0xbcfcd6bb	-0.03086411
56	0x3ef67f44	0.4814397
57	0x3e91d500	0.2848282
58	0xbe23ba37	-0.15989004
59	0xbeb5fe0f	-0.35545394
60	0xbe4c2253	-0.19934969
61	0xbe8b10d0	-0.27161264
62	0x3d6764e5	0.056492705
63	0xbde0bfd9	-0.10974092
64	0xbe33d4a7	-0.17561589
65	0xbda3a47b	-0.079903565
66	0xbec105b7	-0.37699673
67	0x3e5e9de7	0.21739922
68	0x3ec1064e	0.37700123
69	0xbeab52dd	-0.33461657
70	0x3d92829c	0.07153818
71	0x3e8f0cef	0.27939555
72	0x3ee6b5c7	0.4506056
73	0xbe1acf2f	-0.15118097
74	0xbec1d3b5	-0.37856832
75	0x3da20a28	0.079120934
76	0x3de0a9df	0.109699
77	0x3e037b1d	0.12839933
78	0x3ed477c2	0.41497618
79	0x3e29161a	0.16512337
80	0xbee276af	-0.44231173
81	0xbd700f3a	-0.05860827
82	0xbe46150d	-0.19343968
83	0xbedfcc21	-0.43710425
84	0xbe4a8b61	-0.19779731
85	0xbebb993e	-0.36640352
86	0xbc50edf5	-0.012752046
87	0x3c32b70f	0.010907902
88	0x3e870357	0.26369736
89	0x3f120bb2	0.57049096
90	0x3e4ef802	0.20211795
91	0x3e9923c2	0.29910094
92	0x3f26cc52	0.6515552
93	0xbeb0aff4	-0.34509242
94	0x3e5d45c2	0.21608642
95	0x3d73f2e1	0.0595578
96	0xbf11543c	-0.56769156
97	0xbf11ae8b	-0.56906956
98	0x3d82d1d9	0.063876815
99	0xbee01a59	-0.43770102
100	0xbe49e12c	-0.19714803
101	0xbd8cf826	-0.06883268
102	0x3eb60d3c	0.35556972
103	0x3e6ad887	0.22934161
104	0x3d6667f1	0.05625147
105	0x3e5fff75	0.21874793
106	0x3ea78398	0.32717586
107	0x3ebdc7e7	0.37066576
108	0xbe97e795	-0.2966887
109	0x3e9f45bf	0.311079
110	0x3e9256f0	0.28581953
111	0x3ea96aa5	0.33089176
112	0x3d89a081	0.06720067
113	0x3e805999	0.25068358
114	0x3ed5ddc3	0.41770753
115	0x3e5cacf8	0.21550357
116	0xbf012f5c	-0.5046289
117	0x3d5bec50	0.053692162
118	0x3ee6a68d	0.45048943
119	0x3ebebe49	0.3725455
120	0x3ee4dba5	0.44698825
121	0x3e225514	0.15852767
122	0xbe95e242	-0.29274184
123	0xbe7b405c	-0.2453627
124	0xbebf745d	-0.37393466
125	0xbef6ead8	-0.48226047
126	0xbe12966d	-0.14315195
127	0x3e1e49de	0.15457866
128	0xbf0c955d	-0.5491541
129	0x3eee7a87	0.46577856
130	0x3e2653e7	0.16242944
131	0xbd91d7f6	-0.071212694
132	0x3e8f521b	0.2799233
133	0xbe2b4ed8	-0.16729295
134	0x3e4b3d08	0.198475
135	0x3e1223f9	0.14271535
136	0xbd7ef5b5	-0.062246043
137	0xbee43317	-0.44570228
138	0xbda1cb1c	-0.07900068
139	0xbeadeb03	-0.33968362
140	0x3d984cfa	0.07436557
141	0x3ec8aefd	0.39196005
142	0x3ecdf428	0.4022534
143	0x3c88700a	0.016654987
144	0x3e87ed1c	0.26548088
145	0xbe19b865	-0.15011747
146	0xbf04bebe	-0.5185355
147	0xbec05a53	-0.37568912
148	0x3d8b31ec	0.06796631
149	0x3ea6bb7d	0.32564917
150	0x3e8466d9	0.25859717
151	0x3c62b6aa	0.013837496
152	0x3e5b920d	0.21442433
153	0xbefe59f0	-0.49677992
154	0xbdc16b5b	-0.094443046
155	0xbd2cc8d5	-0.042183716
156	0x3df27999	0.11839599
157	0x3ec6ab73	0.3880268
158	0x3ecdae93	0.40172252
159	0x3e0e6030	0.1390388
160	0x3e1dcc84	0.15410048
161	0xbeb358d2	-0.35028702
162	0xbe80474e	-0.250544
163	0x3f039932	0.5140563
164	0xbedadd2e	-0.42746872
165	0xbd9f5932	-0.077806845
166	0x3ec206d0	0.37895823
167	0x3cd0f570	0.025507659
168	0xbef02600	-0.46903992
169	0x3e33b22c	0.17548436
170	0x3ea81ab8	0.32832885
171	0xbe9ff981	-0.31245044
172	0xbe2374c8	-0.15962517
173	0x3e33a13e	0.17541978
174	0xbd8efa91	-0.069813855
175	0xbe4976c0	-0.19674206
176	0xbea3b3f4	-0.3197323
177	0xbe8392fd	-0.2569808
178	0xbe26a584	-0.16274077
179	0xbd8b5388	-0.06803042
180	0xbd2929f6	-0.041299783
181	0xbe8a5213	-0.27015743
182	0x3e9e7726	0.30950278
183	0xbee83223	-0.4535075
184	0xbe2077d7	-0.15670715
185	0x3ea963a8	0.33083844
186	0x3da0b805	0.07847599
187	0x3e603316	0.21894488
188	0x3ec73594	0.38908064
189	0xbe72e33b	-0.23719494
190	0xbd44dbdb	-0.048061233
191	0xbeb9abdd	-0.36263934
192	0xbd19977a	-0.037497975
193	0xbe93f8a5	-0.28900638
194	0xbe58cc3b	-0.21171658
195	0xbea7adce	-0.3274979
196	0xbe69f74c	-0.22848243
197	0xbda02b76	-0.078207895
198	0x3ec3ef2c	0.3826841
199	0x3efe4cfe	0.49668115
200	0xbe538f2f	-0.20660089
201	0xbe084953	-0.13309221
202	0x3ec70af0	0.38875532
203	0x3d9b5783	0.07585051
204	0xbf0362b5	-0.5132249
205	0x3db52aeb	0.088460766
206	0x3e86596e	0.26240104
207	0x3e8e38dd	0.27777758
208	0xbe9dca9f	-0.3081865
209	0xbe2665ff	-0.16249846
210	0x3c77ba46	0.015120095
211	0x3b7767d7	0.0037751102
212	0xbe6707f1	-0.22561623
213	0xbd9fd0d7	-0.07803505
214	0x3d06ede4	0.032941714
215	0xbe35d584	-0.17757231
216	0xbd1af403	-0.037830364
217	0xbe3083ac	-0.17237729
218	0xbe7daf1e	-0.24773833
219	0xbddf14e4	-0.108926564
220	0xbe4f1106	-0.20221338
221	0x3dd44a9a	0.103657916
222	0xbe9e944e	-0.30972522
223	0xbe752f24	-0.23943764
224	0x3e42bc0d	0.19017048
225	0x3e829933	0.25507507
226	0x3dd625a8	0.10456401
227	0x3ed2e817	0.41192695
228	0xbdb4f001	-0.088348396
229	0x3e73c872	0.23806933
230	0x3c426493	0.011864799
231	0x3e8695b8	0.262861
232	0x3e52f1a6	0.20599994
233	0xbd163a5f	-0.03667676
234	0x3eb54a42	0.35408217
235	0x3d0fe10c	0.03512673
236	0xbca65233	-0.020302868
237	0x3e1dbc60	0.1540389
238	0xbe815d4b	-0.2526649
239	0x3e88f1b6	0.2674691
240	0xbe092b8c	-0.13395518
241	0xbe948db0	-0.2901435
242	0x3ecdee4d	0.40220872
243	0xbea78f1c	-0.3272637
244	0xbe982815	-0.2971808
245	0xbda673c2	-0.08127548
246	0xbeca471c	-0.39507377
247	0xbe639258	-0.22223794
248	0xbe4bf626	-0.19918117
249	0x3f064c5e	0.5246028
250	0x3ed26881	0.41095355
251	0x3f0a555d	0.54036504
252	0x3eaccd9e	0.33750623
253	0x3df7773a	0.120832875
254	0x3ecb642f	0.39724872
255	0x3ed3cce8	0.4136727

conv1.bias f4 [32]
0	0x3e7696a9	0.2408091
1	0x3b397fa7	0.0028304846
2	0xbe568b8d	-0.20951672
3	0xbd80d5d8	-0.062907875
4	0xbe064104	-0.13110739
5	0x3dfcbf8a	0.12341221
6	0xbe149e69	-0.14513554
7	0xbe38a6c7	-0.1803237
8	0x3ebb7bed	0.36617985
9	0xbdf06d99	-0.11739654
10	0xbccc5170	-0.024941176
11	0xbdeb4011	-0.11486829
12	0x3ebbf9cb	0.36714014
13	0x3ddc422d	0.107548095
14	0x3ea87b3c	0.3290652
15	0xbd5a7c31	-0.053341094
16	0x3db36341	0.087591656
17	0x3e3bf889	0.18356527
18	0x3df9368e	0.121686086
19	0xbea88e77	-0.32921192
20	0x3de6914f	0.11258184
21	0xbe762f36	-0.24041447
22	0x3e556b5d	0.20841737
23	0xbe87d73b	-0.26531395
24	0xbeb27a33	-0.34858856
25	0xbd2518ce	-0.04030686
26	0xbe849806	-0.25897235
27	0x3da0d9ce	0.07854043
28	0xbe486051	-0.19567992
29	0x3df83a83	0.12120535
30	0x3e04fbe9	0.12986721
31	0xbdf8d8b3	-0.12150707

conv2.weight f4 [64, 32, 4, 4]
0	0x3d165617	0.036703195
1	0xbca80e8a	-0.020514745
2	0x3d2f011b	0.042725664
3	0xbd1fc6cf	-0.039007958
4	0xbd4061c8	-0.04696825
5	0x3cac8a4d	0.02106204
6	0x3d09fa67	0.033686068
7	0x3bee5e19	0.007274401
8	0x3d0a3cf1	0.033749525
9	0xbd120aad	-0.035654712
10	0xbd08992a	-0.033349194
11	0xbc96eea2	-0.018424336
12	0xbcb897f3	-0.022533393
13	0xbbf43f7b	-0.0074538565
14	0xbbdd02c5	-0.006744715
15	0x3ce63775	0.028102616
16	0xbc715494	-0.014729638
17	0x3c9dbc3b	0.019254794
18	0xbc7fae57	-0.015605531
19	0x3ce0644e	0.027391579
20	0xbd3950a1	-0.04524291
21	0x3cce5311	0.025186094
22	0xbd25c71d	-0.040473092
23	0xbc0e8952	-0.008699732
24	0x3b455bcd	0.0030114532
25	0x3cfb1e77	0.030654175
26	0x3d2663aa	0.04062239
27	0xbc910673	-0.01770327
28	0xbcae9efd	-0.021316046
29	0xbd04bf24	-0.03240885
30	0xbd0da0a5	-0.03457703
31	0xbd3572f5	-0.044299085
32	0x3cca49e4	0.024693437
33	0x3bb6d046	0.0055790273
34	0x3bfa59e9	0.0076401127
35	0xbcda6be0	-0.026662767
36	0xbcfcfb5d	-0.030881578
37	0x3c885993	0.016644275
38	0xbd1a5413	-0.037677836
39	0xbc8b0db3	-0.016974306
40	0xbaea8d10	-0.0017894823
41	0x3d021cd4	0.031765774
42	0xbacb4ccf	-0.0015510562
43	0x3c6a4ef3	0.0143010495
44	0x3d2e69d1	0.042581383
45	0x3cb251c0	0.021767497
46	0x3c51afa7	0.012798226
47	0x3d08c95f	0.033395167
48	0xbcebd1c0	-0.02878654
49	0x3bc64cc1	0.0060516302
50	0xbcc6b22c	-0.02425488
51	0xbcc8b361	-0.024499597
52	0xbd3214be	-0.043476813
53	0xbc6520f0	-0.013984904
54	0xbc9b0865	-0.018924901
55	0xbd072e82	-0.033003338
56	0x3cd67f4c	0.026183747
57	0xbabf9b02	-0.001461834
58	0xbc6d5254	-0.014484961
59	0xbd202476	-0.03909727
60	0x3c6be35f	0.014397471
61	0x3af8ead0	0.0018990878
62	0xbcd06ca8	-0.025442436
63	0xbc96a4c2	-0.01838911
64	0xbc04490d	-0.008074057
65	0x3ce0854b	0.027407309
66	0xbc82b4c9	-0.015955346
67	0x3c1b9197	0.009495161
68	0x3d1eb41a	0.038745977
69	0x3d0043ba	0.03131459
70	0xbd2c6677	-0.042089906
71	0xbb456c2e	-0.0030124295
72	0xbd14bf53	-0.036315273
73	0xbcd6b2c2	-0.026208285
74	0x3cb34bdb	0.021886757
75	0xbc89f53c	-0.01684057
76	0x3d06690c	0.032815024
77	0xbd365c7d	-0.044521797
78	0xbd2e17d6	-0.0425032
79	0x3d1063cf	0.035251435
80	0x3aee94fe	0.0018202362
81	0xbb45d379	-0.0030185862
82	0x3ca51543	0.02015174
83	0x3cc5dcb5	0.024153093
84	0xbcf656e8	-0.030070737
85	0xbd2894d6	-0.041157566
86	0x3ccb5c9e	0.024824437
87	0xbd229b38	-0.03969881
88	0x3b211747	0.0024580525
89	0xbd17e35b	-0.037082057
90	0x3c045c7c	0.008078691
91	0xbd2ed902	-0.042687424
92	0xbc9f85e7	-0.01947303
93	0xbc5f91be	-0.0136455875
94	0xbcadcb5e	-0.021215137
95	0xbd001134	-0.031266406
96	0x3c722fbe	0.01478189
97	0x3ce1beb2	0.02755675
98	0x3d2857eb	0.04109947
99	0xba451c96	-0.0007519213
100	0xbd0d2d24	-0.034466878
101	0xbb9038ae	-0.004401288
102	0xbc8fc6b4	-0.017550804
103	0xbcf1c9a7	-0.0295151
104	0xbc453912	-0.012037532
105	0x3cc4d23e	0.024026033
106	0x3c11e320	0.0089042485
107	0xbcd1c36c	-0.02560588
108	0xbc353a51	-0.011061267
109	0xbd173090	-0.036911547
110	0xbbbe401e	-0.005805983
111	0x3c96b1e2	0.018395368
112	0xbbdd1769	-0.0067471755
113	0xbc2862c9	-0.0102774585
114	0x3d10f5a7	0.035390522
115	0xbb0d5cc5	-0.0021570188
116	0x3c5a2ea5	0.013316785
117	0xbba09b21	-0.0049013053
118	0x3c97deea	0.01853891
119	0xbc3c90ed	-0.011509162
120	0xbb124ea8	-0.0022324715
121	0x3c57b56d	0.013165814
122	0x3c06fccc	0.008238982
123	0x3c83e388	0.016099706
124	0x3b82bf5d	0.0039900974
125	0xbcf8892f	-0.030338852
126	0xbcb25446	-0.0217687
127	0xbd1398df	-0.03603446
128	0xbd330ea4	-0.043715134
129	0xbcd6949b	-0.026193907
130	0x3d1edf66	0.038787268
131	0xbc7fd956	-0.015615782
132	0xbb9b17a2	-0.004733042
133	0x3b87f333	0.0041488647
134	0x3d214801	0.03937531
135	0xbc13d59b	-0.0090230955
136	0xbbf28ccf	-0.0074020396
137	0xbd29160b	-0.041280787
138	0xbcc3b81b	-0.0238915
139	0xbd0b0306	-0.03393843
140	0x3d105a63	0.03524245
141	0x3d2959b4	0.041345313
142	0x3c024a69	0.007952311
143	0xbcdbe6b0	-0.026843399
144	0xbcc10080	-0.023559809
145	0x3c300d2e	0.01074533
146	0xbb149bad	-0.0022675798
147	0xbd38cc68	-0.045116812
148	0x3ca87f97	0.020568652
149	0xbc8a1951	-0.016857775
150	0xbc442381	-0.011971355
151	0x3d1dbf2e	0.0385124
152	0x3cdfbdf6	0.02731226
153	0x3cda3a71	0.026639195
154	0xbd07d094	-0.0331579
155	0x3c4735cb	0.012158821
156	0xbb02ee92	-0.0019978625
157	0x3c4b852e	0.012421889
158	0x3ba0a41d	0.0049023763
159	0x3bffe698	0.0078094713
160	0xbbb709b1	-0.005585872
161	0x3b8c074f	0.004273332
162	0xbcb7d033	-0.022438144
163	0xbd3c613f	-0.04599118
164	0x39d60e59	0.0004082795
165	0x3d03e2de	0.03219878
166	0x3d250419	0.04028711
167	0x3d1d7a23	0.038446557
168	0x3c96e536	0.018419843
169	0xbc78ed8f	-0.015193357
170	0x3c6c65f8	0.014428608
171	0x3c43f068	0.011959173
172	0xbd1f8e79	-0.038954232
173	0x3d1429d6	0.03617271
174	0xbc921865	-0.017833898
175	0x3ce5763b	0.028010478
176	0x3c7057d9	0.014669382
177	0xbd0b3be5	-0.033992667
178	0x3be24366	0.006905007
179	0xbd08e8cf	-0.03342515
180	0x3b3b53a1	0.0028583782
181	0xbc5bcfe3	-0.013416263
182	0xbccd6909	-0.025074499
183	0xbd1cd5fd	-0.038290013
184	0x3ba06114	0.004894385
185	0x3d352ffd	0.04423522
186	0xbc8bde7d	-0.017073864
187	0xbcad35e3	-0.02114386
188	0x3d22cf51	0.039748494
189	0xbc6c7bad	-0.0144337835
190	0x3c969c17	0.018384976
191	0x3c8ad48f	0.016947059
192	0x3ba6bbab	0.0050882897
193	0x3cae0115	0.02124075
194	0xbcc0a25f	-0.023514925
195	0xbcf3c9d3	-0.029759323
196	0x3d0eeead	0.034895588
197	0xbd0f4f83	-0.034987938
198	0x3c7f1bb2	0.015570568
199	0x3d1e9638	0.03871748
200	0xbd1de158	-0.038544983
201	0x3c855c2d	0.016279304
202	0xbcec18f9	-0.028820502
203	0x3c2345ae	0.009965343
204	0x3d40896b	0.047006052
205	0x3ad28383	0.0016060922
206	0x3c458c28	0.012057342
207	0x3c1c5a38	0.009542994
208	0xbd184488	-0.03717473
209	0xbd3a0133	-0.0454113
210	0x3b9942ba	0.004677144
211	0x3c10d436	0.0088396575
212	0xbce46546	-0.027880322
213	0xbc961bc4	-0.018323787
214	0xbcb04ab8	-0.021520004
215	0xbc2f1b43	-0.010687652
216	0x3d14e004	0.03634645
217	0x3d1ee699	0.038794134
218	0x3c9cf461	0.019159498
219	0x3aa933f8	0.0012909165
220	0x3cf8000b	0.030273458
221	0x3d127de6	0.035764597
222	0x3c64ee79	0.013972872
223	0x3c4aed7e	0.012385724
224	0x3cc8be7f	0.024504898
225	0xbd25d219	-0.040483568
226	0x3c50f4e1	0.012753696
227	0xbcc15f38	-0.023604974
228	0x3ccad24d	0.024758482
229	0xbb0dd95f	-0.0021644456
230	0x3c251ad9	0.010077202
231	0xbc9def73	-0.019279217
232	0xbbf556ca	-0.0074871527
233	0x3bb6f73a	0.005583671
234	0xbae87d85	-0.0017737603
235	0x3c55bded	0.01304577
236	0xbcc1f5f3	-0.023676848
237	0x3ccd20f5	0.02504013
238	0xbc9e08a7	-0.019291235
239	0xbb83a8e2	-0.004017935
240	0xbc20b440	-0.0098086
241	0xbc2f1cb4	-0.010687996
242	0xbc1cd847	-0.009573049
243	0x3c7ae65c	0.015313711
244	0x3d1a83e5	0.03772344
245	0xbd2e7244	-0.04258944
246	0xbc0ec4a1	-0.008713872
247	0xbd0cde5d	-0.03439175
248	0x3d23b94e	0.039971642
249	0xbd31a658	-0.04337153
250	0xbcaea41d	-0.02131849
251	0x3cc0c023	0.023529118
252	0x3cda5a9c	0.026654534
253	0x3b9bc3d7	0.0047535705
254	0x3c5783f2	0.013154017
255	0x3d08a086	0.033356212

conv2.bias f4 [64]
0	0x3cd5128b	0.026009819
1	0x3bc94f22	0.0061434666
2	0xbbef8f2f	-0.00731077
3	0x3c810504	0.015749462
4	0xbd2f92dd	-0.04286467
5	0xbb9f3d8c	-0.004859632
6	0x3b748d16	0.003731554
7	0xbc9bf7c7	-0.019039048
8	0xbc9f34dd	-0.019434387
9	0xba76c464	-0.000941342
10	0x3c8b5647	0.017008914
11	0xbc990948	-0.018681183
12	0xbc72383e	-0.014783917
13	0xbb944146	-0.0045243828
14	0xbcefe5aa	-0.029284317
15	0x3ae65a48	0.0017574513
16	0xbd1a3d6f	-0.037656244
17	0x3bc3bc25	0.0059733563
18	0xbb3829e5	-0.0028101143
19	0xbc52e7d9	-0.01287266
20	0x3d124379	0.03570888
21	0xbd2b324c	-0.041796014
22	0xbcbf16a9	-0.023326235
23	0xbc9f4769	-0.01944323
24	0xbccd63f8	-0.025072083
25	0xbced9a22	-0.02900416
26	0xbcc78e01	-0.024359705
27	0xbcc655e8	-0.024210885
28	0xbcfd407b	-0.030914536
29	0xbd32eda6	-0.04368367
30	0xbd37f18d	-0.044908095
31	0x3d0f85dd	0.03503977
32	0xbd65676b	-0.05600683
33	0xbd299834	-0.041404918
34	0xbd1795e1	-0.03700817
35	0x3c8b3902	0.016994957
36	0xbcfa38a8	-0.030544594
37	0xbcb055e4	-0.02152533
38	0xbc392dd1	-0.011302427
39	0xbca1c0d3	-0.019745266
40	0xbcfe7d56	-0.031065624
41	0xbca2ddf9	-0.019881235
42	0x3b905a4e	0.0044052964
43	0xbcbe0fe1	-0.023200931
44	0xbcb5fa17	-0.022213979
45	0xbcdaac37	-0.026693447
46	0x3ca84fbe	0.020545837
47	0xbc807da4	-0.01568491
48	0xbc89fb31	-0.01684341
49	0x3cd57379	0.026056038
50	0xbd4015a3	-0.046895634
51	0x3cf09312	0.029367004
52	0xbd27f2ca	-0.041003026
53	0x3c85f20a	0.016350765
54	0x3cc5141f	0.024057446
55	0xbcc4cd76	-0.024023753
56	0xbb308f50	-0.002694089
57	0x3c799cbd	0.015235123
58	0xb90332ac	-0.0001251201
59	0xbd2b8f06	-0.041884445
60	0xbd8604a4	-0.06543854
61	0xbd498533	-0.049199294
62	0xbd08ee88	-0.033430606
63	0x3bcb83c4	0.006210776

fc1.weight f4 [128, 1600]
0	0xb9f3b040	-0.00046479888
1	0x3c359bfb	0.011084552
2	0x3c12adf9	0.008952611
3	0x3bda9d0f	0.006671555
4	0x3c31c62f	0.010850473
5	0x3cb67bfb	0.022275915
6	0xbc47ebfd	-0.01220226
7	0xbc60dd77	-0.013724676
8	0xbc12545a	-0.008931244
9	0x3bbfbef5	0.0058516213
10	0xbca486d8	-0.02008383
11	0x3c25128f	0.0100752255
12	0x3be464ea	0.0069700377
13	0x388a190f	6.58502e-05
14	0xbc3a6af3	-0.011378038
15	0x3bbc2cb7	0.005742635
16	0x3c1644fc	0.009171721
17	0x3c181068	0.009281255
18	0xbcbfa1f0	-0.023392648
19	0x3bcb09be	0.0061962297
20	0xbc6f650f	-0.014611497
21	0x3c3fc966	0.011705732
22	0x3ccb2c8b	0.024801513
23	0x3c9c2d52	0.01906458
24	0x3c9af49e	0.01891547
25	0x3d11557b	0.03548191
26	0xbcbb4d06	-0.022863876
27	0x3cf03479	0.029321896
28	0x3c2d4ad0	0.010576919
29	0xbc18a758	-0.009317242
30	0xbc284621	-0.010270626
31	0xbcf04590	-0.029330045
32	0xbcc38377	-0.023866398
33	0x3cbd4629	0.023104744
34	0x3d09ec95	0.033672888
35	0xbba11f0f	-0.0049170326
36	0x3cdef428	0.027216032
37	0x3d15d87c	0.03658341
38	0x3c19844b	0.00936992
39	0xbce7bc00	-0.028287888
40	0x3b8c814c	0.0042878743
41	0x3c2905e2	0.010316344
42	0x3cfe8cb2	0.031072948
43	0x3d23c595	0.03998335
44	0x3d4eccfd	0.05048846
45	0xbc0f7215	-0.008755227
46	0x3c6b4f37	0.014362148
47	0xbcffec9e	-0.031240758
48	0xbd26d251	-0.040727917
49	0xbbff6d75	-0.0077950307
50	0x3bde87a4	0.006791072
51	0x3ac42a8f	0.0014966297
52	0x3ca62354	0.020280518
53	0xbcb46f94	-0.02202586
54	0xbac066e3	-0.00146791
55	0x3d17ceb1	0.03706235
56	0xbca533e3	-0.020166343
57	0xbd037228	-0.03209129
58	0x3cb219fc	0.021740906
59	0xbc1f712b	-0.009731571
60	0xbbfd6f2f	-0.0077342014
61	0xbafbd7ba	-0.0019214072
62	0x3d77d511	0.06050593
63	0xbd0e514a	-0.034745492
64	0xbd282cda	-0.0410584
65	0x3c9ce4d2	0.019152079
66	0x3c80ceba	0.015723575
67	0x3a967449	0.0011478747
68	0xbccc3b13	-0.024930513
69	0xbcf797b8	-0.030223712
70	0xbce66e6a	-0.028128821
71	0xbb310078	-0.0027008336
72	0xbd4f6894	-0.050636843
73	0x3cc74fe7	0.024330093
74	0x3bc2b5a2	0.0059420625
75	0x3bff6d3e	0.007795005
76	0x3b217653	0.0024637177
77	0x3b463544	0.003024415
78	0x3cbe5993	0.023236072
79	0xbc6ec6e5	-0.014573787
80	0xbcc545d6	-0.024081152
81	0xbc7e3579	-0.015515679
82	0xbd0b7695	-0.034048636
83	0x3be567ee	0.007000915
84	0x3b9f158e	0.0048548644
85	0xbcebfc6c	-0.028806888
86	0xbb810073	-0.003936821
87	0x3cff57a6	0.031169724
88	0xbbb67ea7	-0.0055692974
89	0xbb63b8b7	-0.003474755
90	0x3c2545f6	0.010087481
91	0xbc5ba2ed	-0.013405544
92	0x3cc07db8	0.023497447
93	0xbd280fe5	-0.041030783
94	0xbcf2e395	-0.029649535
95	0xbbacc0ff	-0.0052720304
96	0xbd2a5cd0	-0.04159242
97	0xbbdd9813	-0.0067625134
98	0xba51f51d	-0.0008009242
99	0x3c93f34d	0.01806035
100	0xbbf60bf2	-0.007508748
101	0xbc5ee3a9	-0.013604083
102	0xbc145c15	-0.009055157
103	0xbb3eb71a	-0.0029100836
104	0xbb8e1314	-0.0043357704
105	0xbbfcaf9a	-0.007711363
106	0x3d281863	0.041038882
107	0xb98fc589	-0.0002742226
108	0x3d0bb4aa	0.03410784
109	0x3c93df34	0.018050767
110	0x3cac4d9f	0.021033106
111	0xbcafdc22	-0.021467272
112	0xbc4faa43	-0.012674871
113	0x3d0a9b94	0.033839777
114	0x3d0dbc51	0.03460342
115	0x3c353614	0.0110602565
116	0xbceb5e8c	-0.028731607
117	0x3ab85ef8	0.0014066389
118	0x3d05ce0f	0.032667216
119	0xbc870ada	-0.016484667
120	0xbce0daca	-0.027448077
121	0xbd3c8294	-0.046022967
122	0x3c8ca9fd	0.0171709
123	0xbc1c9008	-0.009555824
124	0xbb22b874	-0.002482918
125	0xbc61d08e	-0.0137826335
126	0x3bde35d7	0.0067813206
127	0xbafc5767	-0.0019252122
128	0x3ca34898	0.019932076
129	0x3c399e2c	0.011329215
130	0x3cb62d01	0.022238256
131	0xbc868826	-0.016422343
132	0x3ca3e39d	0.020005995
133	0x3c17cb1d	0.009264735
134	0x3c7dcf21	0.015491278
135	0x3c3cb54f	0.011517837
136	0xbaf36716	-0.0018570151
137	0x3c1010f5	0.008793105
138	0xbce9eac6	-0.028554332
139	0x3b14213b	0.0022602815
140	0xbc9dfd5c	-0.01928585
141	0xbcf66026	-0.030075144
142	0xbce6a577	-0.028155072
143	0xbd0c07a3	-0.03418697
144	0xbbab6610	-0.0052306727
145	0xbcc0fa0f	-0.023556737
146	0x3b98fb2e	0.004668615
147	0x3b36ec05	0.0027911675
148	0x3b7f7169	0.003897751
149	0xbb91dec0	-0.0044516027
150	0x3c846b7a	0.01616453
151	0x3c962712	0.018329177
152	0xbca30f23	-0.019904679
153	0x3bf87b41	0.0075830524
154	0x3c39ce58	0.0113407
155	0xbcc88624	-0.024478026
156	0xbc88fc74	-0.016721942
157	0xbd07f4c8	-0.033192426
158	0xbc80549b	-0.015665343
159	0xbc523108	-0.012829073
160	0xbd121b18	-0.03567037
161	0xbcb0c382	-0.0215776
162	0x3c201adf	0.009772032
163	0x3cbecf6c	0.023292266
164	0x3c954d78	0.018225417
165	0x3b6667e8	0.0035157148
166	0x3cc7fc92	0.024412427
167	0x3d445148	0.04792908
168	0xbc1978ce	-0.009367181
169	0xbc75d77e	-0.015004991
170	0x3ba126a1	0.004917935
171	0xbb805774	-0.003916675
172	0xbc84b3ab	-0.016198954
173	0x3c9f50fc	0.019447796
174	0xb9b9a39d	-0.0003540785
175	0xbc8f5b41	-0.017499568
176	0x3be95f09	0.007121925
177	0x3b214eb8	0.002461357
178	0xbc81bb05	-0.015836248
179	0xbb6f43c0	-0.0036508888
180	0x3d187c48	0.0372279
181	0xbc599970	-0.013281211
182	0xbc8df034	-0.017326452
183	0x3ca8286f	0.020527093
184	0x3d1f4d52	0.038892098
185	0xbd1a8fad	-0.037734676
186	0xbd503c99	-0.05083904
187	0xbbf24413	-0.007393369
188	0x3d68d37a	0.056842305
189	0x3d4cc651	0.049993817
190	0xbb13c410	-0.0022547282
191	0xbc8c0566	-0.017092418
192	0x3cfeea44	0.031117566
193	0x3cf16ba7	0.029470278
194	0x3d2db7e3	0.042411696
195	0x3d21b518	0.039479345
196	0x3cac863b	0.0210601
197	0x3d04bac4	0.032404676
198	0xbc2a08e6	-0.010378098
199	0xbd0fa1b9	-0.03506634
200	0xbcaa3e02	-0.02078152
201	0xbcd49a29	-0.025952416
202	0xbd72a264	-0.0592369
203	0xbca79875	-0.02045844
204	0xbd53f1a3	-0.051744115
205	0x3cd4b716	0.025966208
206	0x3c3a8e4c	0.011386465
207	0x3cdfb500	0.027307987
208	0xbca748ff	-0.02042055
209	0xbc97c01d	-0.018524224
210	0x3c20fcc6	0.009825891
211	0x3d052ba7	0.032512333
212	0x3ddc250d	0.107492544
213	0x3c4cb987	0.012495405
214	0x3d5536d3	0.052054238
215	0xbc9465cd	-0.018114949
216	0x3c884d71	0.01663849
217	0x3d1cff2e	0.038329296
218	0xbcfc441d	-0.030794198
219	0x3ca646ce	0.020297434
220	0xbd3422d0	-0.043978512
221	0xbd9bc42e	-0.07605778
222	0xbd41006c	-0.047119543
223	0xbac9ea06	-0.0015404827
224	0x3cd9fa76	0.026608687
225	0x3c4099b8	0.011755399
226	0x3bbbb269	0.0057280553
227	0xbc3b53e3	-0.011433574
228	0xbcd44cb5	-0.025915483
229	0xbc5063f1	-0.01271914
230	0xbc71a975	-0.014749874
231	0xbd212ffe	-0.03935241
232	0x3d2174f0	0.03941816
233	0x3d3b27d1	0.04569227
234	0xbcb8d1b6	-0.022560935
235	0x3c99452c	0.018709742
236	0x3d347a1a	0.044061758
237	0x3dabdc8a	0.08391674
238	0x3d472dd5	0.048627693
239	0x3d107c32	0.035274692
240	0x3d36e19e	0.04464876
241	0x3d03e790	0.032203257
242	0xbca1bf13	-0.019744432
243	0xbc4e2d06	-0.012583977
244	0x3c520b54	0.012820084
245	0x3a6296bf	0.0008643679
246	0xbc9b7605	-0.018977175
247	0xbd00c091	-0.031433646
248	0xba286beb	-0.00064247724
249	0xbbb3f9be	-0.005492418
250	0x3ab6b586	0.0013939596
251	0x3a1eb7fb	0.0006054637
252	0x3c9bf47e	0.019037481
253	0xbc2f6cc8	-0.010707088
254	0x3b085392	0.0020801765
255	0x3cf1881e	0.029483851

fc1.bias f4 [128]
0	0xbcbe8b85	-0.023259887
1	0xbc12db2e	-0.008963389
2	0x3bf4eb6c	0.0074743535
3	0x3c4dc6b2	0.01255958
4	0x3ba00113	0.0048829406
5	0x3bd6d002	0.006555558
6	0xbc401361	-0.01172337
7	0x3c6fa86f	0.01462756
8	0x3c9ffe02	0.0195303
9	0x3bd98b47	0.0066389176
10	0x3a91f3da	0.0011135295
11	0x3c8a6cea	0.016897637
12	0x3caeba7b	0.021329155
13	0x3b867089	0.0041027707
14	0x3d12ec7e	0.035870068
15	0x39f310ee	0.00046361185
16	0xbc0e8231	-0.008698032
17	0xbc5f514a	-0.013630221
18	0xbc8d39ed	-0.017239535
19	0xbcca7cb9	-0.024717676
20	0xbc9d3b1f	-0.01919323
21	0xbc2225f8	-0.009896748
22	0x3cb2c89d	0.021824175
23	0xbc22e05a	-0.009941185
24	0xbbc7231b	-0.006077183
25	0xbc55057b	-0.013001795
26	0xbc815a8c	-0.015790246
27	0xbbef8aed	-0.0073102624
28	0x3b8857b6	0.0041608466
29	0x3ba141a8	0.004921157
30	0x3cb8ffb8	0.022582874
31	0x3c1bdecd	0.009513569
32	0x3bd42993	0.0064746826
33	0x3c14fe34	0.00909381
34	0x3ce60393	0.028077876
35	0x3cb7bbc0	0.022428393
36	0xbc9b464b	-0.018954417
37	0x3cb60fab	0.022224268
38	0xbd01b766	-0.031669043
39	0xbce13108	-0.0274892
40	0xbb428cb3	-0.0029685914
41	0xbcf71961	-0.030163469
42	0xbac1a8c4	-0.0014775028
43	0xbc9cb7d5	-0.019130627
44	0x3c40ed68	0.011775352
45	0x3bedceab	0.0072573028
46	0xbccdcb83	-0.025121456
47	0x3a0f9755	0.00054775673
48	0x3cf27d95	0.029600898
49	0x3c0d11ce	0.008610202
50	0xbc71623a	-0.014732892
51	0x3be0bfd4	0.006858805
52	0x3c98df28	0.018661097
53	0x3cf5ed29	0.030020313
54	0x3cbbafcd	0.022910977
55	0x394d51df	0.00019580823
56	0x3ccd6033	0.025070285
57	0x3c9de1da	0.019272733
58	0xbc737664	-0.0148597695
59	0xbc9dc399	-0.019258307
60	0xbc430320	-0.0119026005
61	0x3d3575ee	0.04430192
62	0x3a6853b0	0.0008862568
63	0x3bc9806d	0.0061493427
64	0xbd349eb9	-0.044096682
65	0xbcb38e30	-0.021918386
66	0xbb03c896	-0.0020108572
67	0x3c56e814	0.013116855
68	0x3c1b0f98	0.009464167
69	0x3d043233	0.032274436
70	0x39f346e1	0.0004640138
71	0x3d0a5d27	0.033780243
72	0x3c0831f8	0.008312695
73	0x3d18165c	0.0371307
74	0xbca1fe0c	-0.01977446
75	0x3c79f422	0.01525596
76	0x3c9e2fb4	0.019309856
77	0x3cb29521	0.021799626
78	0x3d022acf	0.031779107
79	0x3c22eaa4	0.009943638
80	0x3af1e6fd	0.0018455681
81	0x3c502706	0.012704616
82	0x3c3cb309	0.011517295
83	0x3c6016d3	0.013677317
84	0xbb413ac6	-0.0029484495
85	0xbc27bccb	-0.010237883
86	0x3a6d1fc0	0.00090455636
87	0xba95716a	-0.0011401598
88	0xbc869b0b	-0.016431352
89	0x3c8de9b4	0.017323352
90	0xb99ceaa0	-0.00029929448
91	0x3cba4fd0	0.022743136
92	0xbc59efdc	-0.013301816
93	0x3ccf6e4c	0.025321148
94	0x3cc6eea1	0.024283709
95	0xbc8be7b3	-0.017078256
96	0x3c867fe0	0.016418397
97	0x3c0f7c05	0.008757596
98	0x3951a0c4	0.00019991683
99	0xbc1a4d24	-0.009417806
100	0x3cdb31e0	0.02675718
101	0x3c84f74d	0.016231203
102	0xbc914ac7	-0.017735852
103	0x3c12d642	0.008962216
104	0x3c8ae750	0.016956002
105	0x3c935623	0.01798541
106	0x3ab8bec7	0.0014094942
107	0x3c7e2741	0.015512289
108	0xbcb03589	-0.021509903
109	0x3cb7d3cf	0.022439865
110	0x3cb3cc5b	0.02194803
111	0x3d1950b6	0.037430488
112	0x3c736a40	0.014856875
113	0x3c742291	0.014900819
114	0xbcaf67d0	-0.021411806
115	0x3c558173	0.013031351
116	0x3c6561c1	0.014000357
117	0x3cab6338	0.020921335
118	0xbd0d3159	-0.03447089
119	0xbcc67cf8	-0.024229512
120	0x3c9105d7	0.01770298
121	0xbbdcd5fd	-0.0067393766
122	0x3c85b2b3	0.016320562
123	0x3d1651e9	0.03669921
124	0xbce70a18	-0.028203055
125	0x3d110732	0.035407253
126	0x3cb74db9	0.022375928
127	0xbccea09c	-0.025223069

fc2.weight f4 [10, 128]
0	0x3e55f7e8	0.2089535
1	0xbd999471	-0.07499016
2	0x3adf6fff	0.0017046927
3	0xbd2a191c	-0.041527852
4	0xbe27c7c2	-0.16384795
5	0xbe26adee	-0.16277286
6	0x3e358b2e	0.17728874
7	0xbd5bd4c2	-0.0536697
8	0xbcee0687	-0.029055847
9	0x3cc1dd2f	0.023665039
10	0xbe169bfc	-0.14707941
11	0xbdc3422a	-0.09534104
12	0x3e0ab7ef	0.13546728
13	0x3d981fef	0.07427966
14	0x3ea80329	0.3281491
15	0xbe4169a4	-0.18887955
16	0xbdcc7969	-0.09984095
17	0x3d979fee	0.07403551
18	0xbe184784	-0.14871031
19	0xbc8b48d4	-0.0170025
20	0xbda8b648	-0.082378924
21	0xbd2f4d1e	-0.042798154
22	0xbe2ecbe7	-0.1706997
23	0xbe519aee	-0.20469257
24	0x3e08b853	0.13351564
25	0xbd9d1a26	-0.07671003
26	0x3e219aab	0.15781657
27	0xbd5710d3	-0.05250628
28	0x3d67a3ef	0.056552824
29	0xbe70216a	-0.23450246
30	0x3c514aaf	0.012774154
31	0xbd95c0dc	-0.07312176
32	0x3de7abe7	0.11312085
33	0x3dea266e	0.11433111
34	0x3e335f74	0.17516881
35	0x3daf454b	0.085581385
36	0xbe150671	-0.14553238
37	0x3e2b843b	0.1674966
38	0xbd1b9b89	-0.037990127
39	0xbcfa3734	-0.030543901
40	0xbd30eefe	-0.04319667
41	0xbcaa9571	-0.020823212
42	0xbe5b0021	-0.21386768
43	0xbcbc3cf2	-0.02297828
44	0xbd93b755	-0.07212702
45	0xbe85eac2	-0.26155668
46	0x3b5ada25	0.0033394184
47	0xbd29c708	-0.041449577
48	0x3d1f30d9	0.038864944
49	0x3ccec0ec	0.025238477
50	0xbd9d6757	-0.07685726
51	0xbbc2c345	-0.005943688
52	0xbc1c27c6	-0.009530967
53	0xbea9ec08	-0.3318789
54	0x3898df2e	7.289495e-05
55	0xbe2aa693	-0.16665106
56	0x3d8556c6	0.06510691
57	0x3e9566ab	0.29179892
58	0xbdb46a9c	-0.088093966
59	0xbcf1bf32	-0.029510114
60	0x3e3e64c0	0.1859312
61	0x3ea41468	0.3204682
62	0x3d982e83	0.074307464
63	0x3dcf20e5	0.10113696
64	0xbe200917	-0.15628468
65	0x3d95db5d	0.07317231
66	0x3ce0ee39	0.027457343
67	0xbe0015e4	-0.1250835
68	0x3d905a3c	0.07048461
69	0x3e918566	0.28422087
70	0x3e8529e1	0.26008514
71	0x3e198e3f	0.14995669
72	0xbda97060	-0.08273387
73	0x3d9890c8	0.0744949
74	0x3d8586c5	0.06519846
75	0xbe4b34b4	-0.19844323
76	0x3e2753a3	0.16340499
77	0x3d6e4a7c	0.058176503
78	0x3e32098e	0.17386457
79	0x3dfa9107	0.12234693
80	0xbda0d1da	-0.07852526
81	0xbca803e6	-0.020509671
82	0xbcb4ad3c	-0.02205526
83	0x3e1e3158	0.1544851
84	0xbe16768d	-0.14693661
85	0x3e50c6e0	0.20388365
86	0xbe257cf8	-0.16160953
87	0xbd4b8085	-0.049683113
88	0x3d03434c	0.0320466
89	0x3db83227	0.08993941
90	0xbda4356e	-0.080180034
91	0xbdcff963	-0.101549886
92	0x3d1ce20b	0.03830151
93	0xbd803a1e	-0.06261085
94	0xbda09260	-0.07840419
95	0x3cab5c73	0.020918107
96	0xbd026bdd	-0.031841148
97	0x3c39cf9b	0.011341001
98	0xbd352ec8	-0.044234067
99	0xbd71444f	-0.058903035
100	0x3e651cf6	0.22374329
101	0xbe3e6cda	-0.18596211
102	0x3c079056	0.008274158
103	0xbe31d503	-0.17366414
104	0xbd297a03	-0.041376125
105	0x3d53508f	0.0515905
106	0x3d23ce96	0.039991938
107	0xbd5bd9cf	-0.053674515
108	0x3d7291a8	0.05922094
109	0xbe62324f	-0.22089504
110	0x3e894ac2	0.26814848
111	0xbe15a053	-0.1461194
112	0x3e1ac12a	0.15112749
113	0xbdd5e0ad	-0.10443244
114	0xbde9c72f	-0.114149444
115	0x3e51ec05	0.2050019
116	0xbdf6a69e	-0.120434985
117	0x3cd87f90	0.026428014
118	0xbdf512d9	-0.119664855
119	0xbd42cddf	-0.047559615
120	0xbc0aaa39	-0.008463436
121	0xbe9305dd	-0.2871541
122	0xbe357885	-0.17721756
123	0x3e1e349f	0.15449761
124	0xbc2a025c	-0.010376539
125	0xbd30a201	-0.04312325
126	0x3e322838	0.17398155
127	0xbdacc284	-0.084355384
128	0xbe8ae595	-0.27128282
129	0x3e241166	0.16022262
130	0xbe066387	-0.13123904
131	0xbdf3f95a	-0.119127944
132	0x3e1ab9d6	0.15109953
133	0x3d9f2e0f	0.07772457
134	0x3dbd8aa9	0.09254963
135	0x3e955bd0	0.2917161
136	0x3dc8c37f	0.09802913
137	0xbe76cb18	-0.24100912
138	0xbe169e55	-0.14708836
139	0xbdb1a77a	-0.08674522
140	0xbd6190c0	-0.055069685
141	0xbdcfc82b	-0.10145601
142	0x3e44925b	0.19196455
143	0x3e3148db	0.17312948
144	0x3de39a0e	0.11113368
145	0x3d22d72d	0.03975599
146	0xbe0a3c88	-0.13499653
147	0xbdaa93a5	-0.08328942
148	0xbde1a4ea	-0.11017783
149	0x3e1ad31d	0.15119596
150	0x3e3c9fe1	0.18420364
151	0x3e0cccad	0.13749953
152	0x3df1b5f6	0.118022844
153	0xbd931885	-0.07182411
154	0xbd6f4e2f	-0.05842417
155	0xbe7e995a	-0.24863186
156	0xbd4eda91	-0.05050141
157	0xbe331717	-0.17489277
158	0x3e31a28e	0.17347166
159	0xbd0f9a0c	-0.03505902
160	0x3e1c5070	0.1526506
161	0x3d8ca522	0.06867434
162	0x3d0c12cb	0.03419761
163	0x3ded6b93	0.11592784
164	0xbd8e1a6f	-0.069386356
165	0x3dcfc84a	0.10145624
166	0xbd969bc6	-0.0735393
167	0xbe4d0026	-0.20019588
168	0x3c8c33d2	0.017114554
169	0xbcfdff97	-0.031005664
170	0xbe2467ff	-0.16055296
171	0xbbb72e48	-0.005590234
172	0xbc587a90	-0.013212815
173	0x3da97b71	0.08275498
174	0xbdaeea0f	-0.08540737
175	0xbd40bc16	-0.047054373
176	0x3d81f817	0.063461475
177	0x3e483efa	0.19555274
178	0x3d8bbee2	0.068235174
179	0xbd081990	-0.033227503
180	0xbd058507	-0.032597568
181	0x3def79d4	0.11693159
182	0xbc1da5b6	-0.009622028
183	0xbc4a156b	-0.012334208
184	0x3e2eb379	0.17060651
185	0xbbb60443	-0.0055547073
186	0xbdb74248	-0.08948189
187	0x3c31ce99	0.010852479
188	0xbd335689	-0.0437837
189	0xbe3f307c	-0.18670839
190	0xbe25046b	-0.16114967
191	0x3e288234	0.16455919
192	0xbe3fe5ce	-0.18740007
193	0x3d755c7b	0.05990265
194	0x3d30c49c	0.04315625
195	0x3d3432f6	0.043993913
196	0x3da527e0	0.08064246
197	0xbe513b56	-0.20432791
198	0xbef17bc6	-0.47164744
199	0x3e1a4708	0.15066159
200	0x3d886af9	0.066610284
201	0x3e2372fc	0.15961832
202	0x3d8b962e	0.06815754
203	0x3e55f87c	0.2089557
204	0xbe83c085	-0.25732818
205	0x3d1120dd	0.03543173
206	0x3e006f01	0.12542345
207	0x3d8ab644	0.06773046
208	0x3cd9c0b9	0.026581155
209	0x3bd9d0f6	0.0066472245
210	0xbd85581b	-0.065109454
211	0xbc446f34	-0.0119894035
212	0xbdcaa823	-0.09895351
213	0xbd62e397	-0.055392828
214	0x3df2f393	0.11862864
215	0x3d32284e	0.04349547
216	0xbc9a853c	-0.01886236
217	0xbea9de51	-0.33177426
218	0xbd8f0057	-0.06982487
219	0x3c9ddf19	0.01927142
220	0xbd557bec	-0.052120134
221	0x3ec2eeb7	0.3807275
222	0x3dafda86	0.08586602
223	0x3dcdb1ea	0.100437
224	0x3e19c321	0.15015842
225	0x3eb691f2	0.35658222
226	0xbe34363c	-0.17598814
227	0x3db2af56	0.08724849
228	0xbe27959a	-0.16365662
229	0x3e858138	0.2607515
230	0xbd541ba1	-0.05178416
231	0xbd90fa5a	-0.07079001
232	0xbd016002	-0.0315857
233	0x3e363d71	0.17796876
234	0x3d6d823c	0.05798553
235	0x3b26bd09	0.0025442264
236	0x3d55f308	0.052233726
237	0x3e2a127d	0.16608615
238	0xbd54227a	-0.051790692
239	0x3e882a1a	0.2659462
240	0xbe82b1c3	-0.25526246
241	0x3c345254	0.011005957
242	0x3d21f074	0.039535955
243	0x3e0d2b25	0.1378599
244	0xbc7821ad	-0.015144748
245	0x3cb9ebe2	0.022695486
246	0xbcab7f15	-0.02093462
247	0x3d7a1796	0.06105765
248	0x3e16c987	0.14725314
249	0x3d06c6a7	0.032904293
250	0x3dda9f36	0.10674898
251	0x3d3e3707	0.046439197
252	0x3d386820	0.045021176
253	0x3e30c44f	0.17262386
254	0xbcb8c9bb	-0.02255713
255	0x3d2248a9	0.039620075

fc2.bias f4 [10]
0	0x3d90edbb	0.070765935
1	0x3ddbba23	0.10728862
2	0xbb8c0e83	-0.004274191
3	0xbd0a1291	-0.033709113
4	0xbde52832	-0.11189307
5	0xbca15303	-0.019692903
6	0x3c0ebc72	0.008711921
7	0x3d1eac3b	0.03873847
8	0x3da95720	0.08268571
9	0xbde03571	-0.10947693
